Project/项目实战/pytorch_classification/1_LeNet_CIFAR10/Lenet.pth (torch, 487900 bytes, 10 tensors)

conv1.weight f4 [16, 3, 5, 5]
0	0x3e073f99	0.13207854
1	0x3e1c3b5a	0.15257016
2	0x3dcf2865	0.101151265
3	0xbc5b77b4	-0.013395239
4	0xbe4957ec	-0.19662446
5	0x3d2346f0	0.039862573
6	0x3e6fcdb0	0.23418307
7	0x3def1a07	0.11674886
8	0x3d2ba083	0.041901123
9	0x3df95b1d	0.121755816
10	0xbc95948d	-0.018259311
11	0xbe1d703e	-0.15374848
12	0x3e55e28f	0.20887206
13	0x3e244939	0.16043557
14	0x3e7f6218	0.24939764
15	0xbe12cdc3	-0.14336304
16	0xbe6578ab	-0.22409312
17	0xbe9491ca	-0.29017478
18	0xbd81e59f	-0.06342625
19	0xbc3c6d91	-0.011500732
20	0x3d903621	0.07041574
21	0x3db34e68	0.08755189
22	0xbdf53719	-0.119734
23	0xbd33a831	-0.04386157
24	0xbdd7ad04	-0.10531047
25	0xbdfe2ef4	-0.12411299
26	0x3de3678b	0.11103734
27	0xbdb2ddf1	-0.08733738
28	0xbd1f1326	-0.03883662
29	0xbe8ccb7e	-0.27499002
30	0xbd9c67e7	-0.07637005
31	0x3c9a6322	0.018846098
32	0x3e3b565f	0.18294667
33	0x3d4f1da9	0.050565396
34	0x3ddd3c73	0.108025454
35	0x3cf4bc5c	0.029874973
36	0xbe3a3a38	-0.18186271
37	0xbc951c38	-0.018201932
38	0x3def68c3	0.116899036
39	0x3d259d48	0.0404332
40	0x3de40771	0.11134232
41	0xbe2f6eb4	-0.17132074
42	0xbe247f72	-0.16064242
43	0xbdeceabf	-0.11568212
44	0x3c735e6d	0.014854056
45	0x3dd426a3	0.10358932
46	0x3dcb3db1	0.09923876
47	0xbddbe3db	-0.10736819
48	0xbd027916	-0.031853758
49	0xbca80f1f	-0.020515023
50	0xbe10458e	-0.14089033
51	0x3de2ac11	0.11067975
52	0x3c74f199	0.0149501795
53	0xbe3b0910	-0.18265176
54	0xbe6d623b	-0.23182003
55	0xbce46846	-0.027881753
56	0xbd3f6b01	-0.046732906
57	0x3e616b35	0.22013552
58	0x3e1da521	0.15395023
59	0x3d0eae08	0.034833938
60	0xbdda9639	-0.10673184
61	0xbdc230c2	-0.09481956
62	0x3e3bc7f3	0.18337993
63	0x3da9ed66	0.08297233
64	0x3e3070ce	0.17230532
65	0x3d8376d0	0.06419146
66	0xbde869d1	-0.11348308
67	0xbdcf5a24	-0.10124615
68	0xbda37ddf	-0.079829924
69	0x3dda7350	0.10666525
70	0x3e15f552	0.14644364
71	0x3d1d6630	0.03842753
72	0xbd8bb6d2	-0.068219796
73	0xbd1122a4	-0.035433426
74	0x3da28fbd	0.07937572
75	0x3cf8f882	0.030391935
76	0x3e3c9531	0.18416287
77	0x3e442459	0.1915449
78	0x3e4f08f7	0.20218264
79	0x3e324926	0.17410716
80	0x3d4e234e	0.050326638
81	0xbd9952c1	-0.07486487
82	0xbd85e561	-0.06537891
83	0x3e04a75f	0.12954472
84	0x3d2ade1f	0.041715737
85	0xbde0cd02	-0.10976602
86	0xbe447c07	-0.19187938
87	0xbdce4b15	-0.100729145
88	0xbdc5d4ca	-0.09659727
89	0xbe33df16	-0.1756557
90	0x3d5831c4	0.052781835
91	0xbe08378c	-0.1330244
92	0x3c1dca25	0.009630715
93	0x3d94b404	0.07260898
94	0xbde18dae	-0.110133514
95	0x3d31ccba	0.043408133
96	0xbdb10c42	-0.08644916
97	0xbd84055b	-0.06446334
98	0x3d420b41	0.047374014
99	0xbdc4c4f4	-0.09607878
100	0x3cf68bdb	0.030095985
101	0xbd1dfb57	-0.038569774
102	0x3e11134f	0.14167522
103	0x3e223b64	0.15842968
104	0x3da5d41e	0.08097099
105	0xbd68873a	-0.056769587
106	0x3dd2ef17	0.10299509
107	0xbdb20a53	-0.086933754
108	0x3d3e7a4f	0.04650336
109	0xbdca065d	-0.09864495
110	0xbc3bf9f6	-0.01147317
111	0x3c7b5e3e	0.015342293
112	0xbd0f5766	-0.03499546
113	0x3cc82146	0.024429929
114	0xbe07996f	-0.13242124
115	0x3d044da2	0.0323006
116	0x3bb9e86b	0.0056734583
117	0x3dc9af29	0.09847862
118	0x3dab71b5	0.08371297
119	0x3da37e58	0.079830825
120	0xbd9c5e29	-0.07635147
121	0xbdfe8358	-0.124273956
122	0x3c0256bc	0.007955249
123	0x3cd6b1d5	0.026207844
124	0xbe2b81e4	-0.16748768
125	0xbd3a7045	-0.045517225
126	0x3d24ebe7	0.040264037
127	0x3db2083b	0.08692976
128	0x3e02f539	0.12788858
129	0xbd886c7d	-0.066613175
130	0x3cf47598	0.02984123
131	0x3e07287b	0.13199036
132	0x3d93abeb	0.07210525
133	0xbc8efed7	-0.017455501
134	0x3ceb4567	0.028719617
135	0x3d931bf0	0.07183063
136	0xbdb74941	-0.08949519
137	0xbdcb827e	-0.09936999
138	0xbcd516c0	-0.026011825
139	0xbdad626d	-0.08466039
140	0x3d88de5f	0.06683039
141	0xbcc6cd01	-0.024267675
142	0xbcb05e59	-0.021529363
143	0x3b49f542	0.003081635
144	0x3d8384eb	0.064218365
145	0x3e112c31	0.14177014
146	0xbdc590d9	-0.09646768
147	0xbd814ca4	-0.06313446
148	0xbdde72dc	-0.108617514
149	0x3b2ab8b2	0.0026050028
150	0xbc02ec9b	-0.007990981
151	0xbe29ecc3	-0.16594224
152	0xb84ca066	-4.8786773e-05
153	0xbdf0d452	-0.11759247
154	0x3da18e7f	0.07888507
155	0xbe34329e	-0.17597434
156	0x3cbe7cc1	0.023252847
157	0x3d822654	0.06354967
158	0x3dd6b847	0.10484367
159	0xbd1f21ba	-0.038850524
160	0xbe51549d	-0.20442434
161	0x3d864e0c	0.06557855
162	0x3e096a3d	0.13419433
163	0xbde290fe	-0.11062811
164	0x3db4c958	0.08827466
165	0xbe024f62	-0.12725595
166	0x3d60f6de	0.05492293
167	0xbccd372b	-0.02505072
168	0xbd1a92bd	-0.037737597
169	0x3ddfb187	0.109225325
170	0x3d4f7586	0.05064919
171	0x3e14b029	0.14520325
172	0xbdf0d115	-0.11758629
173	0xbc63664f	-0.013879373
174	0x3d811605	0.06303028
175	0xbd7599eb	-0.05996124
176	0x3d5a414c	0.05328493
177	0xbe0846b9	-0.13308229
178	0x3dd453bd	0.10367534
179	0xbd80ca87	-0.06288629
180	0xbe4e2f65	-0.20135267
181	0xbc98fae3	-0.01867432
182	0x3e336f1b	0.17522852
183	0x3e05f4a3	0.13081603
184	0x3d03cb05	0.032176036
185	0xbb1d99eb	-0.002404804
186	0x3e54390d	0.20724888
187	0x3c32ca5c	0.010912504
188	0xbddbbfa9	-0.10729916
189	0xbdd17880	-0.10228062
190	0xbe162eea	-0.14666334
191	0x3e4610b6	0.19342312
192	0xbd70d1f8	-0.05879399
193	0xbdeeb6a1	-0.116559274
194	0xbb96c0fa	-0.0046006413
195	0x3d8a4c4c	0.06752834
196	0x3d96e9c7	0.07368808
197	0xbd73e69a	-0.05954609
198	0xbd044f0e	-0.032301955
199	0x3c546079	0.012962454
200	0xbc83c27f	-0.016083954
201	0xbe2bf1f9	-0.16791524
202	0xbe065a42	-0.13120368
203	0x3b344806	0.002750875
204	0xbd476c66	-0.04868736
205	0xbe20e5b2	-0.15712622
206	0x3ca4056d	0.020022118
207	0x3e0bc9a6	0.13651142
208	0x3c643be9	0.013930299
209	0x3da08dc5	0.078395404
210	0xbdd96946	-0.106157824
211	0x3e293b99	0.16526641
212	0x3d28f607	0.041250255
213	0x3c926c97	0.017874045
214	0xbcc876ed	-0.02447077
215	0xbdbf6bcc	-0.093467325
216	0x3dd61eac	0.10455069
217	0x3d300cea	0.042981066
218	0xbd89f662	-0.06736447
219	0x3dd14600	0.102184296
220	0x3b845540	0.004038483
221	0x3da252bf	0.07925939
222	0xbe0c240f	-0.1368563
223	0x3d4559c2	0.048181303
224	0x3dad73b1	0.08469332
225	0x3e01f72e	0.12691948
226	0xbdb20062	-0.08691479
227	0xbe036523	-0.1283155
228	0xbd14e109	-0.036347423
229	0xbe170f30	-0.14751887
230	0xbdd3ae92	-0.10336031
231	0xbd73e577	-0.059545007
232	0xbcbcbce9	-0.023039298
233	0xbe120acf	-0.14261936
234	0x3d76777d	0.060172547
235	0xbd72e3e5	-0.05929937
236	0x39d7cf81	0.00041162598
237	0x3d3a8c6b	0.04554407
238	0xbdb95ca5	-0.09050874
239	0xbd77bb05	-0.06048109
240	0xbe56f118	-0.20990407
241	0x3d11c9d3	0.035592865
242	0xbc800c54	-0.015630879
243	0xba1afe84	-0.00059125596
244	0x3dc9afc4	0.09847978
245	0xbda2a126	-0.07940893
246	0x3c2dd651	0.010610179
247	0x3bfd1cb5	0.0077243694
248	0xbcf442ed	-0.029817069
249	0xbe28b044	-0.1647349
250	0x3e3a6198	0.18201292
251	0xbdae1169	-0.084994145
252	0x3d42e754	0.047583893
253	0x3d78d244	0.0607474
254	0x3e12773f	0.14303301
255	0x3ddc56fe	0.1075878

conv1.bias f4 [16]
0	0xbe0ffddb	-0.14061682
1	0xbe22fe1c	-0.15917248
2	0x3cbf6a34	0.023366071
3	0xbdf20006	-0.11816411
4	0xbe809919	-0.25116804
5	0xbdc77711	-0.09739507
6	0x3de1ba73	0.110218905
7	0xbe1eab27	-0.15494977
8	0x3de42643	0.1114011
9	0x3e54e430	0.20790172
10	0xbdfe7640	-0.12424898
11	0xbda20ae0	-0.079122305
12	0xbe5d4792	-0.21609333
13	0xbe6a97e3	-0.22909503
14	0xbdbe430b	-0.09290131
15	0xbe66d68f	-0.22542785

conv2.weight f4 [32, 16, 5, 5]
0	0x3dd78766	0.10523872
1	0x3cbf99fb	0.023388853
2	0x3de7aeb7	0.11312621
3	0x3e8f1df1	0.2795253
4	0x3e4210a2	0.18951657
5	0x3e00dc85	0.12584122
6	0x3e546e36	0.20745167
7	0x3d9adc9d	0.0756161
8	0x3e421af1	0.1895559
9	0x3e9dc7f4	0.30816615
10	0xbd268618	-0.040655226
11	0x3ddd3915	0.10801903
12	0x3e53e8dd	0.20694299
13	0x3e2b5ede	0.16735408
14	0x3cfc5382	0.030801538
15	0x3c4ad8fa	0.012380833
16	0x3a86e040	0.001029022
17	0x3da1d976	0.079028055
18	0x3e176b6e	0.14787075
19	0x3dcb012b	0.09912332
20	0x3d857b0c	0.0651761
21	0xbd11cc5a	-0.035595275
22	0xbd3f2570	-0.046666563
23	0xbba2ff3f	-0.0049742754
24	0x3c9d9d72	0.019240115
25	0xbe421fce	-0.18957445
26	0xbe02469d	-0.1272225
27	0x3c64cc34	0.013964701
28	0x3da940cd	0.08264313
29	0xbd18c1b8	-0.03729412
30	0xbd660329	-0.056155358
31	0xbdfcb759	-0.12339658
32	0xbe2dc607	-0.16970073
33	0xbcbe7bee	-0.023252454
34	0x3d706ed8	0.05869946
35	0xbd2f75af	-0.04283684
36	0x3c1237f4	0.008924473
37	0xbd8a291b	-0.067461215
38	0xbe3b5531	-0.18294217
39	0xbd08e5ec	-0.033422396
40	0xbdcc9c07	-0.09990697
41	0x3cc8035e	0.024415668
42	0x3cb7e1c6	0.022446524
43	0xbd4433a2	-0.047900803
44	0xbdaa4060	-0.0831306
45	0x3cd08d31	0.02545795
46	0x3d322fc2	0.043502577
47	0xbcebdd40	-0.028792024
48	0x3d9debf4	0.0771102
49	0xbdbf1b1f	-0.09331345
50	0xbdc9920c	-0.09842309
51	0xbe493381	-0.19648553
52	0xbde05985	-0.109545745
53	0x3d8287ee	0.06373583
54	0x3d60b53a	0.05486033
55	0xbd2d91e7	-0.04237547
56	0xbe3d0a9c	-0.18461078
57	0xbe873d01	-0.2641373
58	0xbdeca149	-0.115542
59	0x3d37d7a9	0.044883404
60	0xbd069307	-0.03285506
61	0xbda517e0	-0.080611944
62	0xbe3dcefc	-0.1853599
63	0xbe547c23	-0.2075048
64	0xbd17d860	-0.037071586
65	0x3cbcdfbe	0.023055907
66	0x3d3c74b7	0.046009745
67	0xbd48bc4c	-0.0490077
68	0xbdb969ce	-0.09053384
69	0xbd4d3090	-0.05009514
70	0x3bed4053	0.007240334
71	0xbd03f534	-0.032216266
72	0xbc081795	-0.008306404
73	0xbcfc0dfa	-0.030768383
74	0xbdda3ad9	-0.106557555
75	0xbc4c8994	-0.012483973
76	0xbb8abad3	-0.004233697
77	0x3d156e7a	0.03648231
78	0x3d7a693c	0.061135516
79	0x3e0e6b1b	0.13908045
80	0x3a687f05	0.0008869025
81	0xbd03d78d	-0.032187987
82	0x3d981dc0	0.07427549
83	0x3d64d6c0	0.055868864
84	0x3e2c0a4c	0.16800803
85	0x3d0733d7	0.033008423
86	0xbdae9587	-0.08524614
87	0xbd181a93	-0.03713472
88	0x3cd157b6	0.02555452
89	0x3e1beb26	0.15226421
90	0x3d8da11e	0.06915496
91	0xbd9fd907	-0.078050666
92	0xbdf7b984	-0.12095931
93	0xbd981d5b	-0.07427474
94	0x3d8ca890	0.06868088
95	0x3d30d6d7	0.043173637
96	0xbc3eb0ea	-0.011638859
97	0xbdfd2e97	-0.12362402
98	0xbd484a63	-0.048899066
99	0x3b45e40b	0.0030195739
100	0xbc1d7277	-0.00960981
101	0x3d888494	0.06665912
102	0x3a9f72bf	0.0012164934
103	0x3d851fcf	0.06500208
104	0xbc8cf23e	-0.017205354
105	0xbe014583	-0.12624173
106	0xbc9262ad	-0.017869318
107	0xbd35d0dd	-0.04438864
108	0x3e072455	0.13197453
109	0x3d50bc53	0.05096085
110	0xbdca1f29	-0.098692246
111	0xbd0743b0	-0.033023536
112	0xbda1888d	-0.07887373
113	0x3c27015e	0.010193197
114	0x3dfed7fd	0.1244354
115	0xbd6a6808	-0.05722812
116	0xbde584b9	-0.112069555
117	0xbd13c644	-0.036077753
118	0x39ad0ba4	0.00033005804
119	0x3b89fd13	0.004211077
120	0x3d579880	0.05263567
121	0xbb858b26	-0.0040754257
122	0xbb485ae4	-0.0030571753
123	0xbcd1e0be	-0.02561986
124	0xbd73dbbd	-0.05953573
125	0xbd49816c	-0.049195692
126	0xbd69ecd0	-0.057110608
127	0x3e39bd91	0.1813872
128	0x3e7b3bfd	0.24534602
129	0x3deef65e	0.116680846
130	0x3da29a9d	0.079396464
131	0xbd04612e	-0.03231924
132	0xbe09e795	-0.13467248
133	0x3de92507	0.113840155
134	0x3e295ded	0.16539736
135	0x3dc41c7b	0.09575745
136	0x3e3fefbb	0.18743794
137	0xbce8f61f	-0.028437672
138	0x3c3bacb7	0.011454753
139	0x3e064fcb	0.13116376
140	0x3d7b65c7	0.06137636
141	0x3e509084	0.20367628
142	0x3e201a41	0.15635015
143	0x3d2e6cb5	0.04258414
144	0xbd45ef73	-0.04832406
145	0x3d84e7c0	0.06489515
146	0x3e358937	0.17728125
147	0x3e0a56ee	0.13509724
148	0x3e016ef0	0.12639976
149	0x3b8d0534	0.004303599
150	0x3dcf6c1e	0.101280436
151	0x3db5f342	0.08884288
152	0x3dc725b0	0.09723985
153	0x3e05e5b5	0.13075908
154	0x3e03e35e	0.12879702
155	0xbc4c6c68	-0.012477018
156	0x3d90afcb	0.0706478
157	0x3e0b3e88	0.13598073
158	0x3da19143	0.078890346
159	0x3dac910b	0.08426102
160	0xbdb69e94	-0.08916965
161	0xbd262966	-0.040566824
162	0x3d8c6ef0	0.06857097
163	0x3dd08340	0.10181284
164	0x3cda30a8	0.02663453
165	0xbd7daa51	-0.061930005
166	0xbdac6765	-0.084181584
167	0xbc7fc783	-0.015611532
168	0x3d7e6f9c	0.062118158
169	0x3db8ea41	0.090290554
170	0xbdaa74f8	-0.08323091
171	0xbdd64abd	-0.10463474
172	0xbdd7e449	-0.10541589
173	0xbd2f0266	-0.042726897
174	0x3db95b09	0.09050567
175	0x3e07910e	0.13238928
176	0x3df27911	0.11839498
177	0x3d2d0d92	0.04224927
178	0xbd1b12c7	-0.037859704
179	0xbcf1225b	-0.029435327
180	0xbca254f8	-0.019815907
181	0x3e0a6c45	0.13517864
182	0x3e3bc148	0.1833545
183	0x3d5c924f	0.05385047
184	0xbc9cfcec	-0.019163571
185	0xbd81a7e8	-0.06330854
186	0x3d10cb36	0.035350047
187	0x3e014d8d	0.1262724
188	0x3dded5c9	0.1088062
189	0x3dc0e096	0.09417836
190	0xbc052224	-0.008125816
191	0xbdfdccc7	-0.12392574
192	0xbdf90e5c	-0.12160942
193	0x3d50168c	0.050802752
194	0x3dc829a3	0.097735666
195	0xbe0f86a5	-0.14016207
196	0xbe459413	-0.19294767
197	0xbe2788c7	-0.1636077
198	0xbb1d51b9	-0.002400501
199	0x3d8ca124	0.06866673
200	0xbc259b45	-0.01010782
201	0xbdb1ea17	-0.08687227
202	0xbe3bd8b8	-0.1834439
203	0xbdef246d	-0.116768695
204	0xbd98e867	-0.07466202
205	0x3dec177f	0.11527919
206	0x3d9d4e6a	0.07680972
207	0xbdd2a965	-0.10286216
208	0xbe4cbd90	-0.19994187
209	0xbdccb0e5	-0.099946775
210	0x3d962b8e	0.07332526
211	0x3dece9fd	0.11568067
212	0x3d6f78fb	0.058464985
213	0xbd88a4be	-0.06672047
214	0xbe333c46	-0.17503461
215	0x3e0a1577	0.1348475
216	0x3d9b5031	0.07583655
217	0x3e0dca6e	0.13846752
218	0x3d0d0fe4	0.034438983
219	0xbd42a9e0	-0.047525287
220	0x3ddb9b81	0.107230194
221	0x3d332e93	0.04374559
222	0x3d3762f9	0.044772122
223	0x3d83ea5f	0.06441187
224	0x3b6525b7	0.0034965107
225	0x3c20489f	0.009782939
226	0xbd5c7b06	-0.05382826
227	0xbdad100b	-0.084503256
228	0xbd793357	-0.060839977
229	0xbd1d328f	-0.038378295
230	0xbca40512	-0.020021949
231	0x3d65d083	0.056107055
232	0x3d08c27e	0.033388607
233	0xbce5b2c9	-0.028039353
234	0xbdee0023	-0.1162112
235	0x3d439cb8	0.04775688
236	0xbc00f744	-0.007871453
237	0x3ce94df3	0.028479552
238	0xbd7b3aab	-0.061335247
239	0xbe17f48f	-0.14839385
240	0xbc3be7b5	-0.0114688175
241	0xbd053c78	-0.03252837
242	0x3d841104	0.06448558
243	0x3d3b829d	0.04577886
244	0xbd1e892e	-0.038705043
245	0x3de94aba	0.11391206
246	0x3da3bcc7	0.07994991
247	0x3d6eaee4	0.058272257
248	0x3e0b0c9c	0.13579029
249	0x3d944a33	0.07240715
250	0x3ddeabf7	0.108726434
251	0x3e0ddf0f	0.13854621
252	0x3e05ddd6	0.13072905
253	0xbd6aafe6	-0.057296656
254	0xbd064454	-0.032780007
255	0xbc3af847	-0.011411733

conv2.bias f4 [32]
0	0x3d8e9660	0.069622755
1	0x3e040038	0.12890708
2	0x3e2aaad0	0.16666722
3	0x3ec28057	0.3798854
4	0x3ea17828	0.31536984
5	0xbe74f501	-0.23921587
6	0xbce88e2f	-0.02838811
7	0x3dca3d95	0.09875027
8	0x3d94eca1	0.07271696
9	0x3e7afaca	0.24509731
10	0x3d28c65c	0.041204795
11	0x3e67a109	0.22620024
12	0xbe63c7d5	-0.22244199
13	0xbd9fdbeb	-0.07805618
14	0x3ddb44d7	0.107064895
15	0x3cb7359b	0.022364428
16	0xbe80eed3	-0.25182208
17	0x3b38611c	0.0028134054
18	0x3e7877a5	0.24264391
19	0x3d5dda54	0.054163292
20	0x3e33cd4e	0.17558786
21	0x3e1f5d08	0.15562832
22	0xbe577671	-0.21041276
23	0x3ca8cdae	0.020605888
24	0xbd823c17	-0.063591175
25	0x3e774e8d	0.24151058
26	0xbd20e885	-0.039284248
27	0x3dde5e05	0.108577766
28	0xbe439e8d	-0.19103451
29	0x3c0980ca	0.008392522
30	0x3e8e2ff5	0.27770963
31	0xbd504795	-0.050849516

fc1.weight f4 [120, 800]
0	0x3dfd9998	0.12382811
1	0x3e1e95e0	0.1548686
2	0x3d10cd7f	0.035352226
3	0xbd471dd6	-0.04861244
4	0xbdd5f8df	-0.10447859
5	0x3e3046d1	0.17214514
6	0x3e0716c6	0.13192281
7	0x3dd13a37	0.10216182
8	0x3cfeac43	0.031088
9	0x3d5a91e5	0.053361792
10	0x3da10a81	0.078633316
11	0x3d8a959f	0.06766819
12	0xbbb85b8d	-0.005626148
13	0x3d9fbd4c	0.077997774
14	0x3d13bb78	0.036067456
15	0x3d473e32	0.0486433
16	0x3d9c85ff	0.07642745
17	0xbc50c001	-0.01274109
18	0x3d9cfc6d	0.07665334
19	0xbc1d562d	-0.009603065
20	0x3d288d36	0.041150294
21	0xba29c4aa	-0.00064761436
22	0xbd5e9cb7	-0.054348674
23	0x3dc9496a	0.09828456
24	0x3dd133e0	0.102149725
25	0x3de25544	0.110514194
26	0x3de0a945	0.109697856
27	0x3d594b0b	0.053050082
28	0x3d46a753	0.048499417
29	0x3e5e0c3b	0.21684353
30	0x3e40717a	0.18793288
31	0x3df29dc5	0.118464984
32	0x3de3287a	0.11091705
33	0x3d87e5c2	0.0663562
34	0x3e41e38c	0.18934458
35	0xbc4c06ab	-0.012452762
36	0xbd487050	-0.048935235
37	0x3d050e4f	0.03248435
38	0x3d8da098	0.069153965
39	0x3963c574	0.00021721964
40	0xbcf270f0	-0.029594868
41	0xbda5ea9e	-0.0810139
42	0xbd7b939a	-0.06142006
43	0xbdc526eb	-0.09626564
44	0xbce4eed5	-0.027945915
45	0xbd2766af	-0.04086941
46	0xbd47cf9e	-0.048781984
47	0xbd9120e4	-0.070863515
48	0x3d490a05	0.04908182
49	0x3d8c0367	0.068365864
50	0xbdd4039a	-0.103522494
51	0xbe5c5ac8	-0.21519005
52	0xbe4fd615	-0.2029651
53	0xbd8a5b4a	-0.06755693
54	0xbdd9027d	-0.10596178
55	0xbddfcf79	-0.10928244
56	0xbda5e0eb	-0.0809954
57	0xbe3162ad	-0.17322798
58	0xbe110ab1	-0.14164235
59	0xbdcb2557	-0.099192314
60	0xbd66b56c	-0.05632536
61	0xbd046a5f	-0.032328006
62	0xbd3b22a9	-0.04568735
63	0xbcc5963b	-0.024119487
64	0xbe1788b2	-0.14798239
65	0xbdd8ecab	-0.10592016
66	0x3d24ccb5	0.040234286
67	0xbd305375	-0.04304834
68	0xbcfe4c17	-0.031042142
69	0xbda3c310	-0.079961896
70	0x3d1c10bd	0.0381019
71	0x3dac0cc6	0.08400874
72	0x3cc96780	0.024585485
73	0xbb980023	-0.004638688
74	0xbe1fa5a5	-0.15590532
75	0xbcd952b4	-0.026528694
76	0xbdbaba86	-0.09117608
77	0x3d1c75c7	0.03819826
78	0xbd86479c	-0.06556627
79	0xbe36d6be	-0.17855355
80	0xbdefa894	-0.117020756
81	0xbe2131fe	-0.15741727
82	0x3b40d41c	0.0029423302
83	0xbd92f8b9	-0.07176346
84	0xbe99fc14	-0.30075133
85	0xbd1e0bc5	-0.038585443
86	0x3d068755	0.032843906
87	0xbcab2189	-0.020890014
88	0xbb996bd5	-0.004682044
89	0xbe487428	-0.1957556
90	0x3b14b63b	0.0022691626
91	0x3ccf437e	0.025300737
92	0xbcf3d657	-0.029765291
93	0x3dac2ab3	0.08406582
94	0xbd502e63	-0.050825488
95	0xbd1218f3	-0.035668325
96	0x3de8ef46	0.11373763
97	0x3e1d852e	0.15382835
98	0x3dcfd95b	0.10148879
99	0x3d072ec0	0.03300357
100	0x3e3a8a45	0.18216808
101	0xbdaf6cb6	-0.08565657
102	0xbe0360e6	-0.12829933
103	0xbd5e2f40	-0.05424428
104	0xbe2301b3	-0.15918617
105	0xbe2be762	-0.16787484
106	0x3ca4dd25	0.020124981
107	0x3c523129	0.0128291035
108	0xbd609688	-0.054831058
109	0xbdeace1c	-0.114650935
110	0xbe0b1f96	-0.13586268
111	0x3dc879da	0.09788866
112	0x3d2fe267	0.042940523
113	0x3cb44fcd	0.022010708
114	0xba96e198	-0.0011511324
115	0xbd90996a	-0.070605114
116	0xbe0da01b	-0.13830607
117	0xbc2d0593	-0.010560411
118	0xbd1af93f	-0.037835356
119	0xbc297996	-0.01034393
120	0xbe0142dc	-0.12623161
121	0xbdb24c29	-0.08705933
122	0xbdb9e205	-0.09076313
123	0xbd641a1b	-0.05568896
124	0xbdb77a4a	-0.08958872
125	0x3d2f1557	0.04274496
126	0xbd045636	-0.03230878
127	0xbd45df32	-0.04830856
128	0xbd5a4ba1	-0.05329478
129	0xbd8d4397	-0.06897657
130	0x3dc22e32	0.09481467
131	0x3c4ae813	0.012384432
132	0xbba97954	-0.005171934
133	0xbd5338fe	-0.051568024
134	0xbcc95d7e	-0.024580713
135	0x3e421217	0.18952213
136	0x3d220654	0.039556816
137	0xbe05ce76	-0.1306704
138	0xbdac675d	-0.084181525
139	0xbcf01c88	-0.02931048
140	0x3d56441d	0.05231105
141	0x3abaa95f	0.001424115
142	0x3d23b3a3	0.039966237
143	0xbc5aedab	-0.0133623285
144	0xbdafaed2	-0.08578266
145	0xbd172d28	-0.0369083
146	0x3d1f92f6	0.038958512
147	0xbd11ed82	-0.035626896
148	0xbdf1c3d1	-0.11804927
149	0xbd3c8aa7	-0.046030667
150	0xbd24c526	-0.040227078
151	0xbd06d648	-0.0329192
152	0xbe0d2cfc	-0.13786691
153	0xbe0fa2ac	-0.14026898
154	0xbd32e3ee	-0.043674402
155	0x3c602621	0.013680966
156	0x3ad84487	0.0016499915
157	0xbd4005b1	-0.046880428
158	0xbe1602fc	-0.14649576
159	0xbbe88b70	-0.0070967004
160	0x3df27613	0.11838927
161	0x3e299f78	0.16564739
162	0x3e661fc7	0.2247306
163	0x3e8e0c99	0.27743986
164	0x3e44dbfb	0.19224541
165	0xbdb43195	-0.087985195
166	0x3d2a15dc	0.041524753
167	0x3dbb77da	0.09153719
168	0x3de73cfb	0.11290928
169	0x3e12644b	0.14296071
170	0xbd25109d	-0.040299047
171	0xbdb5ed9e	-0.088832125
172	0xbd97b7a7	-0.07408076
173	0x3bf97a1c	0.0076134335
174	0x3c84b21e	0.016198214
175	0x3df35fd5	0.11883513
176	0x3e194352	0.14967087
177	0x3e0632a0	0.1310525
178	0x3e221dff	0.15831755
179	0x3da626c1	0.081128605
180	0x3d93f78a	0.07224949
181	0x3daac0ae	0.08337532
182	0x3e35710a	0.17718902
183	0x3de331ed	0.11093507
184	0x3dc51297	0.09622686
185	0x3de529f9	0.11189646
186	0xbd115a94	-0.035486773
187	0xbd3fa8eb	-0.046791952
188	0xbd57d85c	-0.05269657
189	0x3d25bcca	0.040463246
190	0xbd9f2956	-0.07771556
191	0xbe2ca0b1	-0.16858174
192	0xbd9eb45b	-0.07749244
193	0xbcde2ff0	-0.027122468
194	0xbe0262bc	-0.12732977
195	0xbdd38ba9	-0.103293724
196	0xbd6ef892	-0.058342524
197	0xbd49b963	-0.049249064
198	0xbe012249	-0.12610735
199	0xbd9ed188	-0.07754809
200	0xbd9d12cb	-0.076696
201	0xbdc5a61b	-0.09650823
202	0x3d1fe3f7	0.039035764
203	0xba3310de	-0.00068308215
204	0x3d9272e1	0.07150818
205	0xba1e43d6	-0.000603733
206	0xbdeb1bd3	-0.114799164
207	0x3d0bd725	0.034140725
208	0xbe06913c	-0.1314134
209	0xbc8a7e6a	-0.016905982
210	0x3d1bf8f4	0.038079217
211	0xbc7baf28	-0.015361585
212	0xbcff45df	-0.031161247
213	0x3ce0b5d1	0.027430447
214	0x3d6bd27e	0.057573788
215	0x3e03ba9d	0.12864156
216	0x3d243291	0.040087286
217	0x3df07884	0.117417365
218	0x3cdd9bb8	0.027051792
219	0x3ddc8350	0.10767233
220	0x3e36eb38	0.17863166
221	0x3c355e05	0.011069779
222	0x3cb09584	0.02155567
223	0xbd66d71a	-0.05635748
224	0x3d0420d7	0.03225788
225	0xbc4c7cd6	-0.012480935
226	0x3d8e4a43	0.06947758
227	0x3d541f36	0.051787578
228	0x3db6bd70	0.08922851
229	0xbaf120e4	-0.0018396643
230	0xbd3cadd4	-0.046064213
231	0xbdc84b37	-0.09779971
232	0x3d3bad57	0.045819607
233	0xbca2680c	-0.019825004
234	0x3d8248c8	0.06361538
235	0xbd032710	-0.032019675
236	0xbd58a311	-0.052889887
237	0xbd120056	-0.03564485
238	0x3c071de9	0.008246877
239	0x3deade2f	0.114681594
240	0xb9b9bc88	-0.00035426416
241	0xbde8bc84	-0.113640815
242	0xbd3c02ef	-0.045901235
243	0xbdf4761e	-0.119365916
244	0x3d8177c9	0.06321675
245	0x3d691037	0.05690023
246	0x3da1d5c6	0.07902102
247	0x3de14234	0.10998955
248	0xbcf64a31	-0.030064674
249	0x3d7b4307	0.06134322
250	0x3dba6405	0.091011085
251	0xbce29afa	-0.02766179
252	0x3ba1d2d0	0.004938461
253	0x3d517e1d	0.05114566
254	0x3dbe53bf	0.09293317
255	0x3d68fc33	0.05688114

fc1.bias f4 [120]
0	0x3d63e7ac	0.05564086
1	0x3d9e0a1f	0.07716774
2	0xb8f5b444	-0.000117160875
3	0x3da4557f	0.080241196
4	0x3e8761e4	0.26441872
5	0xba39c2c0	-0.000708621
6	0xbe265100	-0.16241837
7	0xbcd0459c	-0.025423817
8	0x3e28b202	0.16474155
9	0xbd1fd6da	-0.039023258
10	0x3d4715e8	0.048604876
11	0x3ca07ef5	0.019591788
12	0x3c23e3de	0.010003058
13	0x3d9e239b	0.07721635
14	0x3c8eab79	0.017415749
15	0x3c175820	0.009237319
16	0xbd2a8dbf	-0.041639086
17	0xbd539e87	-0.051664855
18	0x3d9c3bbf	0.07628583
19	0xbcf5f5fc	-0.030024521
20	0xba1827f1	-0.00058042916
21	0xbce2fc1a	-0.027708102
22	0xbdce7abd	-0.10082004
23	0x3e561d93	0.20909719
24	0xbca0ab99	-0.019613074
25	0xba3c6655	-0.00071868795
26	0x3c1943e8	0.009354569
27	0x3d73030d	0.05932908
28	0xbddd0126	-0.10791235
29	0x3d2856d3	0.041098427
30	0x3c9e8476	0.019350272
31	0xbde8b9b4	-0.11363545
32	0x3c3b1e27	0.011420763
33	0xbd7a7f94	-0.061156824
34	0xbd699ef9	-0.057036374
35	0xbd99b274	-0.0750474
36	0x3e901f90	0.2814908
37	0x3e9baca5	0.30405155
38	0xbd3ad3ce	-0.04561215
39	0x3da59dc5	0.08086733
40	0xbc4cb360	-0.012493938
41	0x3df4d097	0.11953848
42	0x3c42a475	0.01188003
43	0x3dac92ec	0.084264606
44	0xbd8fca46	-0.070210025
45	0x3c44196d	0.011968953
46	0xbd0897d4	-0.03334792
47	0x3e506e9b	0.20354693
48	0xbce077a3	-0.027400797
49	0xbd1b8231	-0.037965957
50	0x3e8f617b	0.2800406
51	0xbc3c55af	-0.011495038
52	0x3c01357d	0.007886288
53	0x3cca5693	0.024699485
54	0x3e84c262	0.25929552
55	0x3cb69f8a	0.022292871
56	0xbc9d2843	-0.019184237
57	0x3e8cab36	0.27474374
58	0xbb0b15da	-0.0021222741
59	0x3d75e128	0.06002918
60	0xbcea854d	-0.028628016
61	0x3caf4ec1	0.021399857
62	0xbd18cabd	-0.03730272
63	0x3e7c053d	0.24611373
64	0xbe0601ab	-0.13086574
65	0xbc9c5f07	-0.019088281
66	0xbda9a920	-0.08284211
67	0xbdd80eb2	-0.10549678
68	0x3e2a145e	0.16609332
69	0xbd24b21a	-0.040208913
70	0x3e312178	0.17297924
71	0xbc0f1d9e	-0.008735089
72	0x3ba9c3a7	0.0051807943
73	0x3dab0b15	0.08351723
74	0x3c8d2bda	0.017232824
75	0xbb895d63	-0.004192041
76	0x3edd91db	0.4327534
77	0x3d463694	0.048391894
78	0xbd3221b6	-0.04348918
79	0x3e6cfa66	0.23142394
80	0x3a0cdf6e	0.000537387
81	0xbc3c0988	-0.011476882
82	0x3e39541a	0.18098488
83	0xbd414f6a	-0.047194876
84	0x3c570557	0.013123832
85	0xbcbd6efb	-0.023124209
86	0xbcb7d9f6	-0.022442799
87	0xbb038fdf	-0.0020074768
88	0xbd916647	-0.07099586
89	0xbc3c2582	-0.011483552
90	0xbd64318f	-0.055711325
91	0x3bae5289	0.0053198976
92	0x3cd77ec1	0.026305558
93	0x3aeb9dcb	0.0017976103
94	0x3b52eb02	0.0032183533
95	0x3d6e2ae2	0.058146365
96	0xbd05fe41	-0.03271318
97	0x3ddf43be	0.10901593
98	0x3c0e3fa5	0.008682166
99	0xbc9e5af0	-0.019330472
100	0x3dbec660	0.09315181
101	0xbccdb2aa	-0.025109608
102	0xbce5df7a	-0.028060663
103	0xbd0b6c59	-0.034038875
104	0xbcbb2a78	-0.0228474
105	0xbce5f98a	-0.028073091
106	0xbd15f09b	-0.036606412
107	0x3baa5601	0.0051982407
108	0x3dd2c7b7	0.10291999
109	0x3d7117bd	0.05886053
110	0x3ea65c36	0.32492226
111	0xbc971a8e	-0.01844528
112	0x3c80387d	0.015651936
113	0xbca70b1c	-0.02039104
114	0xbcc6041e	-0.024171885
115	0xbb3ba746	-0.0028633638
116	0x3d5fe922	0.054665692
117	0x3e22d3eb	0.15901153
118	0xbd496e90	-0.049177706
119	0x3e1cc072	0.15307787

fc2.weight f4 [84, 120]
0	0xbde9e445	-0.11420492
1	0x3c95691d	0.018238598
2	0xbdab26d2	-0.08357014
3	0xbe5434d2	-0.20723274
4	0x3c9814df	0.01856464
5	0x3bda1a2c	0.006655952
6	0x3cd8c311	0.026460202
7	0x3e12bd55	0.14330037
8	0x3e1a5abb	0.15073673
9	0xbdb3de61	-0.0878265
10	0xbdc9ca9d	-0.098530985
11	0xbd5bf6c3	-0.053702127
12	0x3e1ef06f	0.15521406
13	0x3c7f939a	0.015599156
14	0x3d8da72c	0.06916651
15	0xb92c8586	-0.0001645294
16	0x3dec5829	0.11540253
17	0x3cd9cb99	0.02658634
18	0xbdb80ade	-0.08986448
19	0x3d3fb6cb	0.046805184
20	0xbd209110	-0.039200842
21	0xbbd853dd	-0.006601794
22	0xbdda794a	-0.10667665
23	0x3e3eab8d	0.18620129
24	0x3d5a79ab	0.053338688
25	0xbda43c21	-0.08019281
26	0x3cb90014	0.022583045
27	0xbc21fcaf	-0.009886905
28	0xbe0b88da	-0.13626423
29	0x3dfc4234	0.12317315
30	0x3dbd54a8	0.092446625
31	0xbe2a44ea	-0.16627851
32	0x3d652a5c	0.0559486
33	0xbcdeb559	-0.027186083
34	0x3cb5c6be	0.022189494
35	0x3da6b2b3	0.08139553
36	0x3d6c1afb	0.057642918
37	0x3da5a21d	0.08087561
38	0x3dbec333	0.09314575
39	0x3c5d8e2a	0.013522664
40	0xbc94de6c	-0.018172465
41	0x3af070c9	0.001834416
42	0x3cb38ccb	0.021917721
43	0x3c142022	0.009040864
44	0x3cb490bc	0.022041671
45	0x3d107e83	0.0352769
46	0x3db9736c	0.09055218
47	0x3dc1520f	0.094394796
48	0x3c60e741	0.01372701
49	0x3d5b9927	0.053612854
50	0x3e3fde72	0.187372
51	0x3d0385ac	0.0321099
52	0xbcfb14f4	-0.03064964
53	0xbdba9598	-0.09110564
54	0x3cf20163	0.029541677
55	0x3d8452d2	0.06461109
56	0xbd39ccaa	-0.0453612
57	0x3da8d8dd	0.082444884
58	0xbd227196	-0.039659105
59	0xbe0162f3	-0.12635402
60	0xbcd08104	-0.025452144
61	0xbdc059fb	-0.093921624
62	0x3c8e6803	0.017383581
63	0xbd33ac72	-0.04386563
64	0x3d4b2850	0.049598992
65	0xbbc27b6d	-0.0059351237
66	0x3d24e99d	0.040261853
67	0xbdc5be63	-0.09655454
68	0x3e48e990	0.19620347
69	0x3acc046f	0.0015565286
70	0x3d3005a0	0.042974114
71	0xbd39196f	-0.04519027
72	0xbbda6457	-0.0066647935
73	0x3e5092ff	0.20368575
74	0x3d24abea	0.040203013
75	0x3cfb80fc	0.030701153
76	0x3d9ec728	0.0775283
77	0x3e4bcf43	0.19903283
78	0xbd86d362	-0.06583287
79	0x3ad29eb7	0.0016069029
80	0xbc51392e	-0.01276998
81	0xbcaddb00	-0.021222591
82	0xbe45c758	-0.19314325
83	0xbcfa83dd	-0.030580455
84	0x3d9be841	0.07612658
85	0xbda1cd27	-0.07900458
86	0x3d9e9157	0.07742565
87	0xbcd8f2ba	-0.026482929
88	0xbbc97e0c	-0.006149059
89	0xbd0e2172	-0.034699865
90	0xbd611ea8	-0.054960877
91	0xbd64817b	-0.055787545
92	0x3e1e5e92	0.15465763
93	0x3d904404	0.07044223
94	0xbcb0a615	-0.02156357
95	0xbd34a02c	-0.044098064
96	0x3da893bc	0.08231303
97	0xbcaaa76a	-0.020831782
98	0xbd46200f	-0.048370417
99	0xbc82a3b4	-0.0159472
100	0xbd66cb09	-0.056345973
101	0xbe02e7f9	-0.12783803
102	0x3d097cd1	0.0335663
103	0x3d603d7d	0.05474614
104	0xbd20117f	-0.039079186
105	0x3dc109fd	0.09425733
106	0xbdb1358f	-0.086527936
107	0xbda640c6	-0.08117823
108	0x3dafa2d7	0.08575981
109	0xbd5b9c26	-0.05361571
110	0x3e2fd7e1	0.17172195
111	0xbdc22cf4	-0.094812304
112	0xbd57781c	-0.05260478
113	0xbd8fbf31	-0.07018889
114	0xbda553d7	-0.08072632
115	0x3c64cef8	0.013965361
116	0xbd9eeb90	-0.07759774
117	0x3e8096f2	0.25115162
118	0xbd68c1eb	-0.05682556
119	0x3dc8a004	0.097961456
120	0x3e095fcb	0.13415448
121	0xbd444708	-0.047919303
122	0x3daf32c4	0.08554605
123	0xbe182b81	-0.14860345
124	0xbbc33474	-0.0059571806
125	0xbc4b34f8	-0.012402765
126	0xbdf4c30f	-0.11951267
127	0xbdb756ac	-0.08952078
128	0x3e6c71c3	0.23090272
129	0xbb2dfaba	-0.002654715
130	0xbd0415e8	-0.032247454
131	0x3dc0f56b	0.0942181
132	0x3d56e37d	0.052463043
133	0x3d9bb6c6	0.07603221
134	0x3c5c7956	0.013456663
135	0xbb91998c	-0.004443353
136	0x3d7a0c42	0.061046846
137	0x3c3b9891	0.011449949
138	0x3d9e4a5b	0.07729026
139	0xbcc9182f	-0.024547664
140	0x3d660fe5	0.056167502
141	0x3cdc1d56	0.026869457
142	0xbd459d43	-0.04824568
143	0x3c14bfb4	0.009078909
144	0x3d068eef	0.032851156
145	0x3dad867c	0.084729165
146	0x3dc172eb	0.09445747
147	0xbde1c49e	-0.1102383
148	0xbd6d256d	-0.05789702
149	0x3bc44586	0.005989733
150	0xbd8d3150	-0.06894171
151	0xbe44bb34	-0.19212037
152	0x3d001673	0.03127141
153	0xbd7c29e2	-0.06156338
154	0x3ce3c7ce	0.027805235
155	0x3d11f22d	0.035631347
156	0x3e05a10b	0.13049714
157	0x3dff7134	0.12472764
158	0x3d810415	0.06299607
159	0xbdaecea4	-0.08535507
160	0xbd9a7d1c	-0.07543394
161	0x3d9eb5fa	0.07749553
162	0x3d3c94fc	0.04604052
163	0x3ca09495	0.0196021
164	0x3d08eeae	0.033430748
165	0x3e64b660	0.22335196
166	0x3a636c80	0.00086755306
167	0x3c914130	0.01773128
168	0xbd52f026	-0.051498555
169	0xbd29def3	-0.041472387
170	0x3d918681	0.07105733
171	0xbd20559f	-0.039144155
172	0xbd95162e	-0.07279621
173	0x3d80304b	0.06259211
174	0xbddd3f26	-0.1080306
175	0xbc187a8d	-0.009306562
176	0xbd78230d	-0.060580302
177	0xbdea1541	-0.11429835
178	0xbc1bb78b	-0.009504209
179	0xbdfb6534	-0.12275162
180	0x3d24f5b0	0.04027337
181	0x3e1b562f	0.15169595
182	0xbcc06589	-0.023485916
183	0x3be00cb3	0.0068374514
184	0x3da9d2fc	0.08292195
185	0xbd965ebf	-0.0734229
186	0xbce91f08	-0.02845718
187	0xbc647bb4	-0.013945509
188	0x3b33afef	0.0027418097
189	0xba82d4b0	-0.0009981599
190	0xbd9eaddc	-0.07748005
191	0x3c7a8b8e	0.0152920615
192	0x3d1e2e14	0.038618162
193	0x3e018687	0.12648974
194	0x3d9e0ade	0.077169165
195	0x3d89ddb0	0.06731737
196	0x3e2f5ac4	0.17124468
197	0xbdcf7ec1	-0.10131598
198	0x3c9f17e0	0.019420564
199	0x3d358d1d	0.04432403
200	0xbe863ed7	-0.26219818
201	0x3dbb25cf	0.09138071
202	0xbd24eec1	-0.040266756
203	0x3df1e749	0.11811692
204	0x3d89a2c1	0.06720496
205	0x3df0f364	0.11765173
206	0xbd705fa7	-0.05868497
207	0x3de9a10f	0.114076726
208	0x3dfdf5b2	0.12400378
209	0xbc95b3aa	-0.018274147
210	0x3ca453e9	0.020059543
211	0xbc2eeec3	-0.010677042
212	0x3e635c42	0.22203162
213	0xbd42e9d3	-0.047586273
214	0xbd434c43	-0.04768015
215	0x3da36cb4	0.07979718
216	0xbd1fe19c	-0.039033517
217	0xbe51e449	-0.2049724
218	0xbc064fc3	-0.008197728
219	0x3c2b3b31	0.010451124
220	0xbd113e9a	-0.035460092
221	0x3d406089	0.046967063
222	0xbda62a43	-0.081135295
223	0xbe2d1775	-0.1690348
224	0xbd232306	-0.039828323
225	0x3daf6f75	0.085661806
226	0xbcd03561	-0.025416078
227	0xbd7e424f	-0.062074956
228	0xbdb3d89a	-0.08781548
229	0xbdd3c642	-0.10340549
230	0x3e337ec7	0.1752883
231	0x3dfd5f83	0.12371733
232	0x3cf77c03	0.0302105
233	0xbcbc8b29	-0.023015575
234	0x3de19b4d	0.110159494
235	0xbd8c6110	-0.06854451
236	0x38f1fbb5	0.000115386596
237	0xbe2a2df7	-0.16619097
238	0x3de6961e	0.11259101
239	0x3db83f6b	0.08996471
240	0xbcfb6603	-0.030688291
241	0xbda37696	-0.07981603
242	0xbcc206e8	-0.023684934
243	0xbe2a997f	-0.16660117
244	0xbe150787	-0.14553653
245	0x3dd2094a	0.10255678
246	0xbe2a7173	-0.1664484
247	0x3cf0775a	0.029353786
248	0xbd60ad4e	-0.054852776
249	0x3d087621	0.03331578
250	0x3ce9253a	0.028460134
251	0x3d746e4d	0.059675504
252	0xbd9906b9	-0.07471985
253	0x3d4560c1	0.048187975
254	0x3da17a2c	0.078846306
255	0xbc4fb7cf	-0.012678101

fc2.bias f4 [84]
0	0x3e2c876a	0.16848531
1	0x3e162099	0.14660873
2	0x3e2f50e2	0.17120698
3	0x3a3ccada	0.0007201858
4	0xbd7df024	-0.061996594
5	0xbc3e777b	-0.011625166
6	0x3dcb1a9a	0.09917183
7	0x3e3c5ced	0.18394823
8	0x3e56847f	0.20948981
9	0xbda8f4d2	-0.08249821
10	0x3e9e61a2	0.30933863
11	0x3ca050c4	0.019569762
12	0x3e4d63cc	0.200576
13	0x3d4e27ba	0.050330855
14	0x3e94ea61	0.29085067
15	0x3d1abdf9	0.03777883
16	0x3dadc678	0.084851205
17	0x3eb93c75	0.36178938
18	0x3e35d297	0.17756115
19	0x3dbf76fe	0.09348868
20	0x3e3a9e48	0.18224442
21	0xbd11dc16	-0.03561028
22	0x3d88a509	0.06672103
23	0x3e3a7830	0.1820991
24	0x3d2d45c7	0.042302873
25	0x3cceb990	0.025234967
26	0xbda91c9f	-0.08257412
27	0x3d61e088	0.05514577
28	0xbb3952fd	-0.0028278225
29	0xbd954d7d	-0.0729017
30	0x3b99d6ba	0.004694787
31	0xbbee75a1	-0.007277206
32	0xbcd9ab93	-0.02657107
33	0x3e39b954	0.18137103
34	0x3e1eedcd	0.15520401
35	0x3dce0c4b	0.100609384
36	0x3e9839f5	0.29731718
37	0xbd75c223	-0.059999596
38	0x3d1cc9cc	0.038278386
39	0xbd90c34b	-0.07068499
40	0x3c76ed83	0.015071276
41	0xbd0af405	-0.03392412
42	0x3ca4c8f9	0.020115362
43	0x3e7dd077	0.24786554
44	0xbe118c36	-0.14213642
45	0xbc4313aa	-0.011906544
46	0x3d9bf331	0.076147445
47	0xbdee2e85	-0.11629967
48	0xbda7aca7	-0.08187228
49	0xbdbfea35	-0.09370843
50	0x3d396072	0.045257993
51	0xbcbccd58	-0.023047134
52	0xbe05d3de	-0.13069102
53	0x3d463e4f	0.048399266
54	0xbd2a7d59	-0.041623447
55	0x3e0b33e3	0.13594012
56	0x3d679546	0.056538843
57	0x3dae8804	0.08522037
58	0x3db70009	0.089355536
59	0xbe33d3b8	-0.17561233
60	0x3dc4db7a	0.09612174
61	0x3daf110b	0.085481726
62	0xbd899500	-0.067178726
63	0x3dbd3d0b	0.09240159
64	0x3e439b40	0.19102192
65	0x3d2856a3	0.04109825
66	0xbe0c42e6	-0.13697395
67	0x3d246118	0.04013166
68	0x3df13c74	0.11779109
69	0x3dae4a6b	0.08510288
70	0x3e5108b4	0.20413476
71	0x3e79efa6	0.24407825
72	0x3e215143	0.15753655
73	0x3d14d60c	0.036336944
74	0x3d8c9eb9	0.068662114
75	0x3e9347b0	0.2876563
76	0xbda60664	-0.08106688
77	0x3d8e0b9b	0.06935807
78	0xbbd7d513	-0.0065866797
79	0x3dcad4ba	0.099038556
80	0x3e5002ba	0.2031354
81	0xbd1dd01f	-0.038528558
82	0x3e2040e5	0.15649755
83	0xbd66a01a	-0.05630503

fc3.weight f4 [10, 84]
0	0x3d104ea5	0.03523125
1	0xbda26043	-0.07928517
2	0xbe8f5b7c	-0.27999485
3	0xbe1018da	-0.1407198
4	0xbc98c37e	-0.018647905
5	0x3d82b32f	0.06381833
6	0x3dd2960b	0.10282525
7	0x3d4d4720	0.05011666
8	0xbe4fc463	-0.2028976
9	0x3e2d83a5	0.1694475
10	0x3d977a0c	0.073963255
11	0xbe0eddfb	-0.13951866
12	0x3ddf4f18	0.10903758
13	0xbe743700	-0.23849106
14	0xbe169b5b	-0.14707701
15	0x3cde40b8	0.02713047
16	0x3db51c3c	0.08843276
17	0xbe8b98e5	-0.27265087
18	0xbe3f6489	-0.18690695
19	0xbc574777	-0.013139597
20	0x3dadb9c3	0.08482697
21	0x3d8c3c55	0.06847445
22	0x3e34cd41	0.17656423
23	0xbe4996b7	-0.196864
24	0xbd0f4b2d	-0.034983803
25	0xbe219bd0	-0.15782094
26	0xbac817b4	-0.0015265853
27	0x3bdf13d7	0.006807785
28	0x3c5a0421	0.0133066485
29	0xbe699941	-0.22812368
30	0xbd428ed9	-0.04749951
31	0xbd559931	-0.052148048
32	0xbd9040f8	-0.07043642
33	0xbd42ef38	-0.047591418
34	0x3cf25682	0.029582266
35	0xbe3e2369	-0.18568195
36	0x3dd05ff5	0.10174552
37	0xbdd781cd	-0.105228044
38	0x3d4c8aed	0.049937177
39	0xbdc82650	-0.097729325
40	0xbe765733	-0.24056701
41	0xbceb4bdc	-0.028722696
42	0x3e0a57d0	0.1351006
43	0xbe71fba7	-0.23631154
44	0xbe052f54	-0.13006335
45	0xbc1b6c94	-0.009486336
46	0xbe22a5df	-0.15883587
47	0xbd35d6ad	-0.044394184
48	0xbe679a5f	-0.22617482
49	0x3d4c2643	0.049841177
50	0xbe1e8b86	-0.15482911
51	0x3dbee5b8	0.09321159
52	0x3d3a344f	0.04546004
53	0xbdef1313	-0.1167356
54	0x3d52533b	0.051348906
55	0xbe041606	-0.12899026
56	0x3d6040bc	0.054749236
57	0x3cb59854	0.022167362
58	0xbd74bef6	-0.059752427
59	0x3dcc5d4a	0.09978731
60	0xbd7d5a36	-0.06185361
61	0xbe136355	-0.14393361
62	0x3d8a39dc	0.06749317
63	0x3d0586b3	0.032599162
64	0x3c8a52b4	0.016885139
65	0xbc192db0	-0.009349272
66	0x3c8cb26a	0.017174918
67	0xbc7c13db	-0.015385593
68	0xbd010f5d	-0.031508792
69	0x3c824053	0.015899813
70	0x3cc04556	0.023470562
71	0xbe16253b	-0.1466264
72	0xbd661b3a	-0.05617831
73	0x3e3a3795	0.18185265
74	0x3ace9598	0.0015761135
75	0x3c2440ed	0.010025245
76	0x3e34be99	0.17650832
77	0xbe365ab0	-0.17808032
78	0xbe862796	-0.26202077
79	0x3ddb867d	0.10719011
80	0xbe05effa	-0.13079825
81	0x3dba630f	0.09100925
82	0xbb708100	-0.0036697984
83	0xbb65b83a	-0.0035052435
84	0xbe58e7a5	-0.21182115
85	0x3dd51aea	0.10405524
86	0xbe39d5fb	-0.18148033
87	0xbd8d29f5	-0.06892768
88	0xbe244cb3	-0.16044883
89	0xbdd618e3	-0.104539655
90	0x3d9b94d7	0.07596748
91	0x3e0afbf1	0.1357267
92	0xbe3ae0d9	-0.18249835
93	0x3c8557bf	0.016277192
94	0x3d97e12a	0.074159935
95	0xbdf07bdc	-0.11742374
96	0xbe4e1884	-0.2012654
97	0xbdf6682a	-0.120315865
98	0x382aeb88	4.0750514e-05
99	0x3c12f6ee	0.008970005
100	0x3dee12be	0.116246685
101	0xbe59a6ae	-0.2125499
102	0x3cd4453e	0.025911923
103	0x3e0bff9e	0.13671729
104	0xbe38c64a	-0.18044391
105	0x3dd8bc14	0.10582748
106	0x3c9c5614	0.019084014
107	0xbea39329	-0.31948212
108	0x3e3c14bf	0.18367289
109	0x3e3f87f0	0.187042
110	0xbdebf041	-0.11520434
111	0x3c891e4a	0.016738076
112	0x3e34d51a	0.17659417
113	0xbc85daa5	-0.01633961
114	0xbe23ec53	-0.1600812
115	0xbcfe7f31	-0.031066509
116	0x3d943572	0.072367564
117	0x3d9fb6a5	0.077985086
118	0x3cb344c0	0.021883368
119	0xbe06b50d	-0.13155003
120	0xbe9a2a9e	-0.3011064
121	0x3c026fae	0.007961197
122	0xbdafc643	-0.08582737
123	0xbe0185ac	-0.12648648
124	0x3da25370	0.07926071
125	0xbdb59811	-0.08866895
126	0xbddaa942	-0.106768146
127	0xbd121c4f	-0.03567153
128	0xbd072ebd	-0.033003557
129	0xbc826664	-0.015917964
130	0xbe3fbf91	-0.1872542
131	0xbdd75e8e	-0.10516082
132	0x3e4eb7eb	0.20187347
133	0xbd3e1632	-0.046407886
134	0x3c99a582	0.018755678
135	0x3e01c3e0	0.12672377
136	0x3daaed03	0.08345988
137	0xbc810868	-0.015751079
138	0xbdca9947	-0.098925166
139	0xbe2f14c8	-0.17097771
140	0xbd8dc8cf	-0.06923067
141	0xbd201444	-0.039081827
142	0x3d6085fd	0.05481528
143	0x3ded3f7d	0.11584375
144	0xbcb41515	-0.021982709
145	0x3b44bb8e	0.0030019018
146	0x3dbadb6d	0.091238834
147	0xbdae1561	-0.085001715
148	0xbe58e1ff	-0.2117996
149	0xbe3434ac	-0.17598218
150	0x3e01a4d8	0.12660539
151	0xbe6e0ff6	-0.23248276
152	0xbdbae4b4	-0.09125653
153	0xbd7500f1	-0.05981535
154	0xbd49eaab	-0.049296062
155	0x3c513d8e	0.012771023
156	0xbce6366f	-0.028102128
157	0x3cc03f8b	0.0234678
158	0x3ddbae9f	0.10726666
159	0xbe1a680e	-0.15078756
160	0x3ce553a0	0.027993977
161	0x3d6cf44f	0.05785018
162	0x3d9e2368	0.07721597
163	0xbdcd85c8	-0.100352824
164	0xbe968170	-0.29395628
165	0xbdf97db7	-0.12182181
166	0xbdae9fac	-0.08526549
167	0xbda3adb6	-0.07992117
168	0x3dc36152	0.09540047
169	0xbdc9f00a	-0.09860237
170	0x3d4d51da	0.050126888
171	0xbe0ae9e9	-0.13565792
172	0xbd4e1d26	-0.050320767
173	0xbda631e6	-0.08114986
174	0xbd8b3820	-0.06797814
175	0xbd2aee52	-0.041731186
176	0xbe4b2f86	-0.19842348
177	0x3d012cab	0.03153674
178	0xbd3b612f	-0.04574698
179	0x3dbc5d75	0.09197513
180	0xbd1ec844	-0.038765207
181	0x3ac4ff99	0.0015029787
182	0x3bf0172b	0.0073269806
183	0xbd5b6e30	-0.05357188
184	0xbc12eb02	-0.008967163
185	0x3e0a7871	0.13522507
186	0x3d98bbe8	0.07457715
187	0xbda87aa8	-0.0822652
188	0x3c9abd67	0.018889142
189	0xbda2a6d2	-0.07941975
190	0x3e3353ac	0.17512387
191	0x3d4897df	0.04897296
192	0x3e1e6921	0.15469791
193	0xbd0c3745	-0.034232397
194	0x3b4fa5ac	0.0031684441
195	0xbd1ba49c	-0.03799878
196	0xbd873104	-0.06601146
197	0xbe6f1682	-0.2334843
198	0xbdbffc2c	-0.0937427
199	0xbd990e4b	-0.07473429
200	0xbdc1d3c8	-0.09464222
201	0xbe5ea020	-0.2174077
202	0xbe0acca9	-0.13554634
203	0xbe1ba966	-0.15201339
204	0xbd3d6225	-0.046236176
205	0xbd8b2abd	-0.06795261
206	0x3dece9f9	0.11568064
207	0x3d651525	0.055928368
208	0x3d99f86a	0.07518084
209	0xbcb677d0	-0.022273928
210	0x3e1e2348	0.15443146
211	0xbdbef97c	-0.09324929
212	0xbd975cad	-0.073907234
213	0x3d89a6b4	0.06721249
214	0x3d496f25	0.04917826
215	0x3b010691	0.0019687752
216	0x3e04c0ef	0.12964223
217	0xbe0822c2	-0.13294509
218	0x3d219038	0.03944418
219	0xbd81b556	-0.06333415
220	0xbdbf74d4	-0.09348455
221	0xbd72dc79	-0.05929229
222	0xbc441c62	-0.011969658
223	0xbdc79e6d	-0.09747014
224	0x3d9cab01	0.07649804
225	0xbd8e9d26	-0.069635674
226	0xbd178c18	-0.03699884
227	0xbde4f892	-0.111802235
228	0x3e08d4dc	0.1336245
229	0xbda2c6b5	-0.079480566
230	0x3d5c524b	0.05378942
231	0xbdfd2be1	-0.12361885
232	0xbe85c138	-0.26123977
233	0x3d4cab0c	0.04996781
234	0xbdeb7578	-0.11497015
235	0x3e19d2d5	0.15021832
236	0x3d46bc14	0.04851921
237	0x3e19b423	0.15010123
238	0x3dd794ec	0.105264515
239	0xbdec0192	-0.11523737
240	0x3943a138	0.00018656708
241	0xbe03de87	-0.12877856
242	0xbd5bd56f	-0.053670343
243	0xbb12bf92	-0.0022392017
244	0x3d714829	0.058906708
245	0xbd91f5fd	-0.07126997
246	0xbe01288b	-0.12613122
247	0x3c5b7a2d	0.013395828
248	0x3dc51d21	0.096246965
249	0xbd31755d	-0.043324817
250	0xba0adf19	-0.00052975264
251	0x3ce6d188	0.028176084
252	0xbd6e157b	-0.058125954
253	0x3d55db54	0.05221112
254	0x3d45462b	0.04816262
255	0xbda4fb62	-0.0805576

fc3.bias f4 [10]
0	0xbd6f03a4	-0.05835308
1	0xbe12b34e	-0.14326212
2	0xbda8093f	-0.082048886
3	0x3d017c8f	0.03161293
4	0x3e5f89bb	0.21829884
5	0x3d74e3d9	0.059787605
6	0x3d39200e	0.045196585
7	0xbe3345cc	-0.17507094
8	0x3db591e6	0.088657185
9	0xbd0de6da	-0.034643985
